case_study_bipedal/bipedal_v3_trained_Adam_nes/4000/weights.npy (npy, 7584 bytes, 1 tensors)

array f8 [932]
000000 3a b2 32 e4 c1 cf df 3f 0d 93 1b ac 16 49 b1 3f
       0.4970555046554953 0.06752149297569705
000010 09 44 bc 15 c1 e2 c8 3f dd d3 2d 89 26 c7 b0 3f
       0.19441999017047376 0.0655387959394171
000020 cc b9 57 e9 ec ad f7 3f ae 63 d9 b9 89 48 e2 3f
       1.4799622645328894 0.5713547353617423
000030 af b5 73 00 c4 e9 97 bf ef 13 5e 77 d9 b1 e5 3f
       -0.02335268261679396 0.6779601413151094
000040 a0 d8 16 39 73 e9 f2 3f b4 b6 7c 79 a0 f0 d1 3f
       1.1819946508453896 0.2803116976163935
000050 70 12 41 e9 5e d3 e3 bf d3 c2 01 d8 ff a2 f4 3f
       -0.6195520931001521 1.2897947728890145
000060 1a 93 73 09 e0 e5 b9 bf 44 7b a0 34 4b 3b d5 3f
       -0.10116386633633248 0.3317440046247848
000070 d3 6d c6 35 8e 5d ec 3f 82 d3 eb 76 ad 7d e6 bf
       0.8864203501029188 -0.7028415033988582
000080 da 29 56 dc c3 a8 ee 3f 42 9f 6c 04 85 58 d4 3f
       0.9581012061547043 0.3179028075414757
000090 7e 84 42 e4 e2 52 d7 bf ca 97 45 75 93 1f e1 bf
       -0.3644339779949134 -0.5351044931855935
0000a0 50 c4 b9 1f f6 11 d1 3f 2e 80 b9 ba 90 cf ca bf
       0.26672127817352465 -0.20945939175999356
0000b0 38 f8 a8 d8 8f 2a e3 3f 6c b9 f6 ae 45 06 df bf
       0.598945544399391 -0.4847578247671638
0000c0 31 0d 8b 6b 07 1b d1 3f 6a c8 7b 22 3b 71 ee bf
       0.2672747183061857 -0.951322142935408
0000d0 c7 d1 4d 92 14 65 df bf e1 f3 9f ea 20 ee d0 bf
       -0.4905444554090334 -0.26453421509341807
0000e0 1c f4 ea 5d 84 4d a2 3f fc 01 df e0 46 f6 c4 bf
       0.03574765821893086 -0.16376577358279565
0000f0 5b 84 f3 2e f4 0f f2 3f 24 15 80 e3 93 ca dd 3f
       1.1288949808151958 0.4654893609698141
000100 ec 04 65 03 b8 74 d2 3f 0a f8 ab d7 c4 84 ab bf
       0.2883739503050282 -0.053747321440809584
000110 75 c7 92 02 dc e1 f1 bf 35 02 81 24 11 14 ce bf
       -1.1176414585611074 -0.23498739511889402
000120 41 ce 2c 53 32 70 c7 bf 9f 1b 47 05 b7 d2 cc 3f
       -0.18311146794586544 0.22518050916388874
000130 85 22 af ae fa 13 cb 3f 82 db 9e b1 a4 45 9b 3f
       0.2115472176503951 0.0266328557406399
000140 a4 14 40 b2 34 a6 d4 bf 55 9f 8c 0b 01 02 d0 bf
       -0.3226443997121555 -0.2501223194872087
000150 26 da 27 44 71 21 bd 3f 48 1c e7 c3 ba 58 c2 bf
       0.1137915412326512 -0.14333281102719497
000160 3b da f3 70 24 fb bf bf ee 4a 87 9b d5 4b e0 bf
       -0.12492587812071403 -0.5092571294465793
000170 83 24 d9 d1 68 7b d7 3f 93 03 b7 ad ed 83 e2 3f
       0.3669073151873549 0.5786045449132068
000180 ce 5c 22 34 01 13 d0 3f d2 f5 a0 3c 68 da da 3f
       0.2511599549411131 0.41958051605965097
000190 d7 73 b1 98 37 b9 e2 bf 09 b6 09 95 d4 b3 cc 3f
       -0.5851095182694007 0.22423798825495592
0001a0 eb 28 30 55 5e d0 ed bf a4 47 13 9e 5d f8 d1 3f
       -0.9316856063681177 0.2807840388969629
0001b0 ab 54 eb f1 39 a6 a2 bf 51 d8 b3 ff dd 47 af 3f
       -0.03642445638767219 0.06109517809265753
0001c0 ef 22 2a 6e 03 b7 b5 bf be 4a d8 44 63 c8 eb bf
       -0.08482381286206551 -0.8682113976122634
0001d0 60 de 46 d8 e9 7a f0 3f bf 98 d9 1c 70 9e da bf
       1.0300081680597017 -0.4159202844370035
0001e0 c3 61 9a 50 5d b0 e0 bf 10 49 86 a3 6d e3 96 bf
       -0.5215288709906009 -0.0223519450242487
0001f0 c1 60 5e 88 52 bd 9d bf 7a 7e a7 05 72 79 d9 bf
       -0.029042520116121965 -0.39803743889022025
000200 cd b3 57 a2 ec 6e b1 3f 04 5b ea 85 6c 1c f1 3f
       0.06809882129137108 1.0694394332001034
000210 82 ee 45 54 4e 08 fd 3f 7f cd 77 e3 ee b7 d4 bf
       1.8145278255387045 -0.32372638906164036
000220 bc ab dc fe d9 9c d5 bf f5 97 6c 1a 4b 5d e5 3f
       -0.3376984585653948 0.6676383510682614
000230 5a 5a ed 6a f7 e3 ee bf cf 2c ad 9a bb cb c9 3f
       -0.9653279388829319 0.2015299325233628
000240 31 d7 da a4 b6 44 b4 3f d6 08 bc f6 27 89 e1 bf
       0.07917348408485904 -0.5479926890405078
000250 59 34 64 f4 a7 61 d5 3f 54 4e 58 0a 95 49 e0 bf
       0.33408545366620995 -0.5089822008180342
000260 46 59 fb 81 ff db b0 3f 18 99 a7 1a d1 9c be 3f
       0.06585690425285859 0.1195803346705343
000270 3c f2 70 65 6f 13 df bf eb 7e 05 2b 1e 91 f5 3f
       -0.4855612269055063 1.347929161121949
000280 43 e4 f3 eb ce 30 d2 3f 01 f5 3b 5c 42 f2 ea 3f
       0.2842290214753726 0.8420726586770401
000290 75 ed 91 ff 84 fa e9 bf 96 11 7a ed 91 5f c3 3f
       -0.8118309966661587 0.15135406585262662
0002a0 0a ec 0f bc b0 c6 e3 bf 8f 38 94 e7 4e 21 df bf
       -0.6180041955079798 -0.48640797248015927
0002b0 0c ca 53 1e 77 47 d1 3f c0 90 f1 f2 51 09 f2 bf
       0.2699868961491638 -1.1272754182801208
0002c0 de fd 2f de 0f 92 e9 3f 33 fa 8c 94 cf d7 e0 3f
       0.7990798320387815 0.5263440991764753
0002d0 41 5b 88 f0 1c 58 f0 3f 40 6a 96 20 e0 5f 9e 3f
       1.0215119739347787 0.029662610997187366
0002e0 19 3e 99 f9 2d c0 d1 bf 78 97 22 93 1a 44 f0 3f
       -0.27735471129287387 1.0166269061532756
0002f0 34 65 c1 01 81 7c f2 bf f3 d4 10 02 de 03 ec 3f
       -1.155396468026379 0.8754720726343791
000300 24 32 10 a8 9c fa f2 bf 4f 7d 46 50 be 9c c6 3f
       -1.1861845555278103 0.17665842933363726
000310 f9 a8 de 7d 18 53 dc bf d7 76 4c fa 3e 5f f7 bf
       -0.4425717572400028 -1.4607534196178926
000320 8d 33 b6 a6 f4 5a e1 3f 45 f6 da 65 2b 2c f3 bf
       0.5423529869163858 -1.198283574936242
000330 2c 5d dc 82 78 f7 dc bf 28 aa b6 8b ba 42 e1 bf
       -0.4526044156968563 -0.5393955925731619
000340 fb a4 11 f3 f2 98 b1 bf 1e 51 3f 17 f1 c7 c8 bf
       -0.06874006685542959 -0.19360173831103905
000350 f1 28 61 22 c4 a7 e0 3f 34 e2 82 84 26 66 d6 bf
       0.5204792663073744 -0.3499847692542375
000360 1f 18 e4 6f 24 34 d8 bf 18 75 65 6b ab 81 e0 bf
       -0.3781825154004554 -0.5158288095077834
000370 52 b4 bb 94 8e 7a ac 3f a4 cb 99 c5 1b fc da 3f
       0.05562253537741725 0.4216374807066876
000380 27 53 35 7d 94 3c e9 bf 61 4f e3 a8 bf 21 f0 3f
       -0.7886450238680468 1.0082394215760007
000390 fa c6 23 e2 b8 29 dc bf cc e5 be 41 89 27 b9 bf
       -0.44004652103386344 -0.09825952391738396
0003a0 5e fc ce ea 3f 9a e3 bf f7 c8 75 7d 15 be cb 3f
       -0.6125793062309517 0.21673840166074118
0003b0 8e 5f 02 35 8d 0e ec bf 09 6d 8c 6c 4e 52 ec bf
       -0.8767763171517673 -0.885047161110749
0003c0 65 55 ad 85 4f d6 b3 bf d6 59 3d 2b 5b 68 e8 bf
       -0.07748887075043383 -0.7627387852215246
0003d0 55 eb 03 8e 49 d0 f0 3f 32 c3 7d 92 e0 30 d6 3f
       1.0508513972733529 0.3467332296923359
0003e0 31 32 f5 38 69 b2 ef 3f fc f2 e3 94 fb d4 ab 3f
       0.9905286896187758 0.05435930435667122
0003f0 23 df a9 b2 a1 79 e1 bf c1 10 2b 8e fe fb ca bf
       -0.546097611381786 -0.21081525747115928
000400 36 1e 1b fc 69 ed d4 bf 13 7b 00 39 5f b7 b5 3f
       -0.3269906007739992 0.0848292841114751
000410 94 3b db bd e8 b6 d1 3f 44 a7 03 de a1 36 c1 3f
       0.2767888883653822 0.13447974529781892
000420 bf 5c 1f 4e a8 0d e7 bf 67 fc 8d 35 29 45 fd bf
       -0.7204171682195905 -1.829385003278526
000430 69 ab c5 28 41 31 e1 3f 26 96 34 c1 5f e7 00 40
       0.5372625156718246 2.1129756063626415
000440 c3 1d 33 d6 fc 79 f4 3f 4b d7 62 a9 06 bb fa bf
       1.2797821395086977 -1.6706606499332846
000450 a6 a3 e8 c3 44 75 f7 bf 6c c0 87 51 33 02 d5 bf
       -1.4661300327954705 -0.32825930559102434
000460 ee 0e 56 44 9f 74 e3 bf 7d 0d 7f 05 68 da ea bf
       -0.6079861006441811 -0.8391609294271088
000470 b8 e3 a7 c4 47 18 e7 3f 3c c7 83 03 b3 2e e1 bf
       0.7217139092382387 -0.5369505947730668
000480 b7 8c c5 d4 0f a2 dd bf 29 e1 e8 de 53 ad a9 bf
       -0.46301646975025385 -0.050150509796767224
000490 fd 36 57 46 d9 18 f3 bf 2a 83 50 de af 07 f0 bf
       -1.1935665843661234 -1.0018767055664264
0004a0 8e f7 94 2f f4 70 fa 3f 64 00 ca 1a fb 1f cd bf
       1.6525766237896025 -0.22753847892818435
0004b0 bc d3 d1 16 1e 15 e6 bf 6e ad 0f c5 58 fa bb 3f
       -0.6900778241821324 0.1092887383562606
0004c0 46 55 7b e4 64 54 bc 3f ea 08 4f d5 96 e7 f1 bf
       0.11066275194328509 -1.1190403301594025
0004d0 43 e6 32 12 39 49 f5 bf 01 57 af 3e 89 00 d1 3f
       -1.3303766928569452 0.26565772172521923
0004e0 5a 64 c2 f8 3b 06 e9 bf 89 ae 41 11 bd b0 bb 3f
       -0.7820110186177189 0.10816556617072072
0004f0 c6 b8 3b 46 cb 39 d9 bf 71 8f c5 09 38 17 e4 3f
       -0.3941524682876544 0.6278343382696062
000500 5d 87 b3 f3 d8 8e b5 3f d9 d8 9b b0 ec 0a ad 3f
       0.08421092939127335 0.056723972853363676
000510 fd d2 0e bb 06 32 e0 3f 84 01 01 d2 eb 8c d2 bf
       0.5061067250704522 -0.28985114582248905
000520 dc 09 dd 5f c6 f9 a3 bf 38 c9 7a f8 5a bb ed 3f
       -0.039015006258086266 0.9291205266111211
000530 0e 9b cb 33 3e 93 d8 bf 32 fd 57 af 0c 03 d1 bf
       -0.38398699815881876 -0.26581112979325205
000540 d8 d1 1f 00 07 b5 c8 bf 82 91 c4 de 0c 31 f0 3f
       -0.19302451616353156 1.0119751645916897
000550 ea 17 d4 1a 80 a7 ee bf 3c b9 71 9d dd 8b db 3f
       -0.9579468273157066 0.4304117238560996
000560 4a a1 07 b0 2e 0e e3 bf 3e 1c f9 f1 ad 5a d7 bf
       -0.5954812467653394 -0.3649096358316831
000570 c0 f3 1f de 56 d6 f2 bf 8f 01 ec d7 28 b8 e6 3f
       -1.1773289372206222 0.7099804131722055
000580 52 41 30 39 d9 0a 83 bf 29 dc 41 14 e6 33 dc 3f
       -0.00929803567672197 0.44066764810799214
000590 a3 85 46 27 8a 94 d4 bf 68 73 24 f3 2a fb e2 3f
       -0.32156614146705403 0.5931601284861303
0005a0 14 b3 ca 74 7e 5e d1 3f 79 c8 60 75 db 5a f4 3f
       0.271392454199302 1.2721819481926373
0005b0 1f 8e 8f c1 86 7a dc 3f 5e 86 80 01 e2 60 d4 3f
       0.44497841741960714 0.3184132589977703
0005c0 ca d1 93 38 12 b8 e2 3f 86 fc 18 14 77 1e c0 3f
       0.5849696259525043 0.12592972260788232
0005d0 68 75 b5 1d 4f 19 de bf dc 38 dd 27 65 09 c2 3f
       -0.4702947416424963 0.1409117169045605
0005e0 d5 7f 94 69 f3 27 e5 bf 4f 33 e1 f0 e7 3e b7 bf
       -0.661126810275159 -0.09080361967899118
0005f0 8c b6 9e a8 eb 11 e0 3f 82 4e 71 8c 14 25 d7 bf
       0.5021875661238524 -0.36163819995019975
000600 e9 45 5a 12 10 93 c6 bf 2b 1d f3 34 36 0c d7 bf
       -0.17636299987911677 -0.3601203457914887
000610 d8 e4 9e b3 5d 0b f8 bf dc 70 1b 0f 33 01 e3 bf
       -1.5027749077256 -0.5938964171469041
000620 f0 cd 4e dc f5 02 da bf 95 02 a4 ec 33 bf f4 3f
       -0.4064306880420352 1.296680378320308
000630 c1 51 5c 32 de 6f cd bf e4 e6 a9 1f 31 8f c7 bf
       -0.22997643908514756 -0.18405736967161268
000640 fb 84 7c c3 de d8 00 c0 90 b5 df 27 35 07 e9 3f
       -2.105893637883694 0.7821298388277445
000650 47 b0 81 c1 7f 90 db bf 34 28 77 d6 62 18 db 3f
       -0.4306945218766071 0.4233634085072737
000660 5a 31 87 3d 59 fe d7 bf b5 20 46 02 9e 21 ff bf
       -0.37489920624354556 -1.945707329638066
000670 d2 b2 3b 23 92 e0 f0 bf f7 ec 4a cd 8e e6 d7 3f
       -1.0548268677040835 0.3734471325694381
000680 6b 31 46 df ce 00 f3 3f af d5 87 03 17 9b e9 3f
       1.1876972886703594 0.8001818722684017
000690 44 71 17 88 67 6d f3 bf 34 b6 1f e0 4d e5 e0 bf
       -1.214210063560203 -0.5279912354869283
0006a0 03 59 48 9d 72 34 e2 bf a4 95 07 17 a5 39 e9 3f
       -0.5689023086477224 0.7882867288396267
0006b0 f6 d8 54 69 1b 09 e2 bf 61 c7 68 ef c9 66 ed bf
       -0.563611703610859 -0.9187974620783558
0006c0 e2 2f bf 58 6a c1 e0 bf cb a7 12 4b b0 1d ea bf
       -0.5236102803551115 -0.8161241022364661
0006d0 2e 83 11 a4 2d ec e2 bf 01 95 a8 ba ec 11 b5 3f
       -0.5913303570233432 0.08230475957005369
0006e0 d4 35 23 ec fe d8 e9 3f e2 a8 38 f2 3c 6e de bf
       0.8077387439786272 -0.47547839788843593
0006f0 1a f2 12 b2 a9 7b 01 c0 71 8f ad 85 29 90 f8 bf
       -2.1853822624236843 -1.5351958486362174
000700 e9 c2 19 62 3c 3e b2 3f 20 18 3f 91 5c 87 1e 3f
       0.07126214404139443 0.00011645796285994535
000710 68 22 21 5c 25 4b d5 bf 13 4c 46 70 25 82 a3 3f
       -0.33271154400839587 0.03810231204547434
000720 76 00 81 9f 22 5c 6b 3f ab 99 0a 10 f5 7b a2 bf
       0.0033398319465334737 -0.03610196896379433
000730 0a 74 90 16 b8 a0 e3 3f 4b 2d 97 28 b5 f9 d8 bf
       0.6133690300663386 -0.3902409454719488
000740 b6 27 e6 14 9a 13 be bf 0c 1a 22 99 f2 bb c5 bf
       -0.11748660097342065 -0.16979820706565396
000750 57 ed bd a7 cf 4c ee bf 5e 2e 7a 72 4c 8c e1 3f
       -0.9468763614853896 0.5483762966045551
000760 0f 38 aa 67 39 9a ee bf 41 6e ac d1 ce c0 c3 bf
       -0.956326200933974 -0.1543215297505061
000770 d9 66 60 7e 61 18 e5 bf 07 c0 da c3 23 a1 f3 3f
       -0.6592261760990495 1.2268407488409154
000780 5a 4c 59 d5 47 e5 e0 bf 52 d8 20 90 5c d2 86 3f
       -0.5279883543938795 0.011143420360991172
000790 2f 83 20 e4 e5 d7 e4 bf 95 fa 5b 8e 59 5a e0 bf
       -0.6513547378163816 -0.5110290317969254
0007a0 1f 21 d3 c4 39 29 e2 3f aa d3 79 ca b0 ce da 3f
       0.5675324291451352 0.4188653924277853
0007b0 49 da f5 e3 1f 17 ed 3f 29 da 92 40 81 74 dc 3f
       0.9090728237486668 0.444610894260594
0007c0 fd dd 78 ad 96 9e d8 bf 88 bc 20 71 93 62 e4 bf
       -0.38467947903288274 -0.6370331964043467
0007d0 9a ff ab a3 1c f2 d3 bf 77 27 10 4b 04 1b e2 3f
       -0.3116523359640212 0.565797945602056
0007e0 b6 67 6c 98 3f 77 d9 bf 48 44 fd 5a 32 e4 e5 bf
       -0.39790334591964027 -0.6841060425887315
0007f0 d1 ea c9 78 a8 cd e6 bf ef 50 22 67 ca 39 dd 3f
       -0.7126047476916374 0.4566522605102951
