case_study_bipedal/bipedal_v3_trained_Adam_nes/6000/weights.npy (npy, 7584 bytes, 1 tensors)

array f8 [932]
00000000: 956d f33d 4712 0040 2ee8 eed8 23ab f63f
00000010: cd66 ec77 84b8 ff3f 0914 cbaa 1ca0 e43f
00000020: 0e7f 5f27 4be7 b7bf 5eea 6895 9b1a f83f
00000030: f228 ed61 ec64 e1bf ce04 cdd7 393f f13f
00000040: 2c9c 438f 6626 eb3f 9290 521d 3ada f83f
00000050: bc72 4efe 9dfb e63f 8bf7 6fd1 9f16 ebbf
00000060: 454f 3f6c ee35 eebf b774 0cab bcbd e03f
00000070: f075 f4ad 3a0b f2bf 9d94 c9b7 27ff d9bf
00000080: e5aa ef35 7a0d e2bf c2a2 e10c 3423 e13f
00000090: 25a6 9654 bf10 e83f bc66 17af 83ef f6bf
000000a0: ea28 a22e e95b e63f 9e3e 6615 215a eebf
000000b0: 9a66 939c 52ae fa3f 028b 23b8 a967 c4bf
000000c0: c834 0050 2c57 ad3f f057 8c75 241e cabf
000000d0: 9d62 1f61 40c7 e53f ddd3 99be 81a7 e33f
000000e0: 1b9a a131 ffcd c33f 3e32 0424 01c7 e3bf
000000f0: 254a 6e2d 3493 cebf 8790 ba54 92b5 d63f
00000100: 79f2 3bf0 269f f23f ae20 2129 bb67 d43f
00000110: 5c50 d88f 3473 e33f 17c5 26b4 741c aebf
00000120: 4255 4c8d 3f2d 0140 5085 4fb9 cbdf ed3f
00000130: 8dbc aff2 bff8 bc3f 8526 7dda 8eff ee3f
00000140: e4a9 b089 4c81 edbf 5b44 3c23 cd43 ee3f
00000150: 3561 ae39 f5db ea3f 7739 35e4 b8de aebf
00000160: 5233 4ab3 de6a f53f 464b 40d7 4957 823f
00000170: da5a d4ac 44a7 d1bf a2ab 5fb6 5bd2 eebf
00000180: 23a2 c454 e9b4 f43f 047d 0299 ef13 d93f
00000190: 00cf 2aba 1ca0 e23f fe7b 6d75 329f ecbf
000001a0: 8e89 ecde 1f30 eebf d516 8f55 6f34 da3f
000001b0: 3003 7852 28f1 d7bf 06ff c99a b3ac f83f
000001c0: 0d85 9982 eb1f e23f 4c47 c353 6f6e d83f
000001d0: 8c46 cba0 42ef db3f 79b0 6d0b 808d e13f
000001e0: 6b38 a73f 8e13 d9bf 61dd 75a3 f477 edbf
000001f0: a57e 13f8 3c07 da3f 4fad 4231 d3ea ebbf
00000200: cb7c 5c6e d877 f2bf 89b1 86a5 8414 bdbf
00000210: e930 9b26 c064 f5bf 87dd 7343 8cc2 b63f
00000220: c836 8f40 4de2 edbf 00db 7250 aff5 ef3f
00000230: 4c04 4672 c44a b9bf 416c 8950 b726 d93f
00000240: 1d18 5b76 7f6b c7bf 82a1 b474 9ff1 b73f
00000250: f529 562b 6bf4 b53f 4e78 2d71 7300 b03f
00000260: ac96 46e2 2d25 f53f 6740 3421 71cc ecbf
00000270: 2ac0 f04b 1275 dabf fd5f ffd8 a303 bbbf
00000280: 0dc9 e1c2 3fd5 f5bf c4b9 819c 6171 cfbf
00000290: d161 2680 32bd cebf 3cd2 653a 2f67 973f
000002a0: 6a75 0dc5 b76c e93f fd32 a3d7 14b3 f3bf
000002b0: f99c 80b7 f65c debf 2365 9f1b 1ef6 e83f
000002c0: 36f8 801d e8fb db3f 34dc 04d5 cb92 e7bf
000002d0: 9587 dac8 2151 dcbf 9e76 318d cc8f d9bf
000002e0: 2a23 5b66 4cda c1bf 8bfb 7867 d459 f5bf
000002f0: a31e ba5c 9a95 e1bf 95a3 4457 8114 e43f
00000300: de31 828f 44bc dfbf 284c 5679 ca02 e73f
00000310: 7d17 3511 d4b8 f23f c193 3066 c5ee e6bf
00000320: f682 c4dc 4f63 c23f d276 7fbd a48d e9bf
00000330: a09e 02bd 49be f53f 7234 e8f7 ae0d 01c0
00000340: 0643 bd43 406b 9abf 8e8c 19ad 709a e7bf
00000350: d5b6 e5a9 d9ed d4bf f5bb 0743 4b67 c7bf
00000360: 93f6 ceab 3bba c9bf 1264 c39b 80c4 d73f
00000370: d380 6cf5 0aad f8bf cc21 3eb8 ced1 05c0
00000380: e046 7e27 8805 e8bf 4d81 341f 3fd2 db3f
00000390: 0f19 d4f5 e0b1 febf 60ee 7512 7aba d8bf
000003a0: 09c6 9968 8a25 f1bf 2e48 827d f2e2 e5bf
000003b0: 87ba 6359 272f efbf c1c9 113b a691 c23f
000003c0: 5bfa bbc4 4655 e7bf 34ea e37c 88fb ccbf
000003d0: 365b 9aa9 1078 f43f c8f2 c0fa 9717 d53f
000003e0: e228 0e66 5b07 a73f 2f2a 27b6 e88e f7bf
000003f0: 10f1 3d0a d010 e03f 8fda 8524 2b4c f13f
00000400: b233 b3ad 7cf8 ebbf eb32 952d b1f6 dbbf
00000410: ea13 505d ddd9 e93f ae0d c6a1 aa8c e1bf
00000420: 6c81 55e3 39bb 02c0 d255 73ce 317f edbf
00000430: ea3d a029 ec8f f53f 3806 0279 24ea e03f
00000440: 96cc 5a50 4a91 0440 341f 5380 c2ec d83f
00000450: 751b fabc 5b98 f0bf 8312 43c1 41c5 fdbf
00000460: ff89 ff36 12fb e93f f157 bf79 a1d9 e0bf
00000470: b5e5 bd26 e3d6 e6bf 04e4 63ec cebc 83bf
00000480: aacb 0474 e2da e93f 26b4 a395 5bf8 e1bf
00000490: 6732 96c2 4d44 eb3f cad0 3c6f 2773 fdbf
000004a0: e2a9 0297 c095 fabf 9580 f417 7a32 f73f
000004b0: 2719 252c f779 d9bf d9c9 80b3 d381 bebf
000004c0: 8863 b1dc af25 fcbf f9fe f8d2 0eda a93f
000004d0: eae7 5234 727d f83f 4be8 f239 7ff6 e93f
000004e0: a6d6 2c34 c8e3 f73f 116d 31b8 5916 f3bf
000004f0: 69d1 c707 e1e5 f6bf 5289 bc7d 3472 f73f
00000500: 5583 091e 3e4b c4bf 74a5 e68c ec02 dd3f
00000510: acd0 5686 ced2 e13f 2125 e99f 9916 d4bf
00000520: 877e c891 ccea e6bf f835 eb46 77ea f13f
00000530: 5bf3 f2e3 0f3f e83f e02f 3124 4b2a d6bf
00000540: 151e 03f3 7891 d63f 4228 df4f 3dfa f8bf
00000550: 3d76 2633 0b1b e23f 56da 943b ef29 dd3f
00000560: 4001 fc14 ee69 f0bf 1f31 1ac3 7161 e2bf
00000570: 7731 3eb5 8b07 c23f dd27 a759 17a9 c4bf
00000580: d2d0 ff20 4b15 f23f 99c7 b371 c3a2 d9bf
00000590: 5808 5822 d57c d03f 51b3 cc97 9d7e e83f
000005a0: bb8a ed81 4760 e13f b102 c216 1c1f f4bf
000005b0: eb18 bed7 0947 e13f 3355 c532 3d26 cf3f
000005c0: 6786 468d 381b e83f 4c06 9173 92b3 e63f
000005d0: 67fa 534b 24ae d23f b7e3 363c ac26 f1bf
000005e0: 198b 0226 f3b5 fdbf ad0b 4e67 9bd1 b43f
000005f0: 02d7 e2c1 be77 dbbf 1b73 e3ae 6c45 c43f
00000600: 1bbc b569 f774 ffbf efcb 4f10 a64c a53f
00000610: a0ad f749 604f e83f 2662 b7db 6180 e23f
00000620: d7a3 e6d6 c1e6 f13f 4651 f991 0882 e4bf
00000630: 432e ab10 4403 e5bf 35e5 3573 41b6 ef3f
00000640: 2e58 08f2 a553 e6bf 80e1 3f99 5002 ef3f
00000650: a0e4 7363 9206 edbf 2120 1ee6 b51b e13f
00000660: a291 31b4 dc08 d2bf 376c 4b4c 233d 8bbf
00000670: ff59 d9b3 76d8 90bf 8631 a7b7 7e2c de3f
00000680: c893 03ff 5104 d7bf 2e38 e8fa 66d7 01c0
00000690: e924 8133 b2bf dabf d5e2 30e3 57b7 e7bf
000006a0: b7ef 5d41 1c13 f43f 15bb 4a9a 8923 f0bf
000006b0: 7693 8893 b13e f2bf 727e ea12 cc69 b83f
000006c0: 3f30 1d00 3bfa cfbf d0e9 099c 9520 d0bf
000006d0: 771a b603 ccc0 cbbf 7b78 3eae 1fc8 f23f
000006e0: e158 57c6 d6a9 d23f fc9b ee41 5d9c eb3f
000006f0: 0609 2143 a35b e1bf 4e83 8316 3bea da3f
00000700: 8eb0 0d36 e8ce fa3f 1a52 b991 74be e43f
00000710: 743b bfec cc8f b6bf 04b4 4299 ac22 d0bf
00000720: 19d7 4b49 a574 e8bf 2292 73dc a4eb b53f
00000730: 5bc3 deab 06e2 943f e71f f2ac c00a d1bf
00000740: 8892 c91e 5d91 e63f b54d a603 a435 01c0
00000750: 8b19 ae4f a519 acbf e8d4 cedf 05e6 e63f
00000760: a6a3 36e9 7d0c aa3f 17a2 7ac0 7cd3 acbf
00000770: d2d7 a805 cef6 b13f 0283 133d 050e db3f
00000780: cb52 1a28 ca6f f03f dd03 c63e b8c6 e4bf
00000790: 937f 409f b33c cf3f a25a 5d50 ae87 afbf
000007a0: 51fc 0cb3 239c d2bf f4cd d0fe f5f1 e8bf
000007b0: ae3d 66f5 9ffc aebf 667a b596 fb17 b2bf
000007c0: e2a8 bd5e f365 e7bf 69da ded7 1c94 e53f
000007d0: a5b2 a129 8e65 cf3f b44f 57de 17e0 c03f
000007e0: a86b bdfc 237d f0bf 94e6 1143 5341 c8bf
000007f0: ee8c 2471 a5fb d33f 2380 5087 1ad6 d83f
2.008924945823035 1.4167822336153324 1.9825482067594067 0.6445449195676939 -0.09337300978904414 1.5064960323640189 -0.5435697472214811 1.077936022731865
0.8484375761153209 1.5532780785952451 0.7182149855539914 -0.8465117540906574 -0.9440834154324668 0.5231612530511914 -1.1277415080179445 -0.4061984343337118
-0.5641451886598047 0.5355472804631847 0.7520443584555251 -1.4334751929767853 0.6987195883569062 -0.9485021036106962 1.6675592533341956 -0.15941354266313829
0.05730570293972331 -0.2040448736158278 0.6805726906705619 0.6141976092027296 0.1547240249958158 -0.6180425361104154 -0.23886730402280523 0.354832251303613
1.163855493941041 0.31883124367278526 0.6078131494018737 -0.0588108510886604 2.147093871967315 0.9335688227985575 0.1131706206794993 0.9686960475311969
-0.922033566404306 0.9457765281860121 0.8393503309808127 -0.0602929857801539 1.3385912898549646 0.008955551988071197 -0.2758342445171543 -0.9631784975039077
1.2941678344014995 0.3918417925105617 0.582044948203901 -0.8944332402714961 -0.943374572180163 0.40945037227025455 -0.37409408620446793 1.542163471836774
0.5663964796805502 0.381740409659973 0.43647828772109487 0.5485229705059417 -0.39181858268864883 -0.9208930199228399 0.4066917822474159 -0.8724151575201321
-1.1542591391551464 -0.11359433213391958 -1.3370973117881084 0.0889060654334256 -0.9338747273374901 0.998740822912481 -0.09879710950737425 0.39298804154322303
-0.18296807555287922 0.09353062247521929 0.08576078231832425 0.06250688088536657 1.3215769614120445 -0.8999562881963471 -0.41339547554071265 -0.10552429244796709
-1.3645627605988608 -0.24564762250834182 -0.24014884240456394 0.022854555072131286 0.7945212219889701 -1.2312210486736028 -0.47442405624538214 0.7800436534409169
0.4372501648066448 -0.7366694603468944 -0.4424519025288814 -0.39940179623031635 -0.13947443960048506 -1.3344310800455073 -0.5495120822024159 0.6275030807929506
-0.495865955491153 0.7190906877389169 1.1701241180575999 -0.7166468616384166 0.14365576057118518 -0.7985404683238022 1.3589570410930847 -2.131681381963568
-0.025799755224684716 -0.7376025563102233 -0.3270172270921255 -0.182839782456966 -0.20099588288387746 0.371368553268952 -1.5422467791432168 -2.727445067783469
-0.7506752749779615 0.4347074322449956 -1.9184274294544286 -0.38638164332198777 -1.0716651998485551 -0.6839535189958548 -0.9745060678377094 0.14506986507656275
-0.7291597216097431 -0.22642618272932824 1.2793127656093026 0.32956504333178005 0.04497800465385794 -1.4723898997641631 0.5020523262060426 1.0810958315538846
-0.8740828888490937 -0.43693189097829926 0.8078448126331044 -0.548421207393792 -2.341419006392405 -0.921776679252327 1.3476373315824 0.528581844657487
2.5709425237378793 0.3894506695910309 -1.0371968633569086 -1.8606584119126246 0.811898333948477 -0.5265662553672411 -0.7137313610721124 -0.00963746699243196
0.8079693094244835 -0.5615671084066249 0.8520878601571668 -1.8406137795655462 -1.6615606211513456 1.4498234687562548 -0.398069184408444 -0.11916850216292775
-1.7592009182755834 0.05049177480077378 1.5306264919186057 0.8113399631322492 1.4931108511058624 -1.1929566569368186 -1.4311228088309582 1.4653820907193063
-0.15854622332246984 0.45330346832141477 0.556983244305703 -0.3138794004085686 -0.7161619994476077 1.119742657686741 0.7576980068330202 -0.3463313916624866
0.35262893420846925 -1.5610936279285998 0.5658012389209898 0.4556844789362108 -1.0258618182852643 -0.5743950663177521 0.14085527753594437 -0.16141025426469371
1.1301986016306285 -0.4005592928289104 0.2576191745175769 0.7654560055576473 0.5430028474478016 -1.2575951470354705 0.5399216855737711 0.24335446337742325
0.7533228644644624 0.7094204194219826 0.2918787704110514 -1.0719416000485873 -1.8569213375819287 0.08132334968654105 -0.42918366369427485 0.15836866893268894
-1.966056263856223 0.041600408068823806 0.7596894688298796 0.5781716624579232 1.118837203461444 -0.6408732272198356 -0.6566486669120838 0.9909980058866156
-0.6977109648894435 0.9690325730471585 -0.9070522253452005 0.534632634590711 -0.2817909011557963 -0.01330020500738814 -0.016450743414987198 0.4714657586562442
-0.3596386900301778 -2.2301768877141717 -0.4179502013181052 -0.7411307751964055 1.254665618266683 -1.0086761500385297 -1.1403060687091204 0.09536433660331925
-0.249823927932427 -0.25198879469067226 -0.21682119542329634 1.1738583380133878 0.2916161477018147 0.8628374374137588 -0.5424362479318752 0.4205463142262048
1.6755144225562932 0.6482489439172838 -0.08813172130542829 -0.25211634604312416 -0.7642389709060097 0.08562689191928333 0.020393470993158896 -0.26628128899801456
0.7052445985141995 -2.151191738617593 -0.05488316152245706 0.7155789729355577 0.0508765551742905 -0.05630102014157872 0.0701721919839138 0.4227307411620559
1.027292400981582 -0.649257776836858 0.24403996730779606 -0.061582038221492455 -0.2907799957792508 -0.7795362450473804 -0.060521124559382286 -0.07067844800392606
-0.7311951494605433 0.674330159780607 0.24528672249598063 0.13183878284928385 -1.030551898255661 -0.18949356818102514 0.31223426865672266 0.38806784834196345
